src/model/Net_10_15_15_5.pt (torch_old, 10080 bytes, 27 tensors)

fc1.weight f4 [10, 2]
000000 ae b6 12 3f ab 9c 39 3f 86 20 be be 8c d6 20 be
       0.5731 0.7250468 -0.37134188 -0.15706843
000010 f7 f6 53 bd 1d 71 44 3f 3d ba 91 3e 85 09 f7 3e
       -0.051749196 0.767351 0.284624 0.4824945
000020 a5 d0 4e 3f 98 47 ab 3e 16 a1 84 be 61 47 5a 3f
       0.80787116 0.3345306 -0.2590415 0.85265166
000030 9b 15 f7 be 38 c8 28 bf 04 ae 4f bf d0 f3 06 3f
       -0.4825867 -0.6593051 -0.811249 0.5271578
000040 37 03 11 bf 70 2c 67 bd 63 3f 18 3f 18 c3 1d 3e
       -0.5664553 -0.056438863 0.5947172 0.15406454

fc1.bias f4 [10]
000000 47 d0 eb 3b fe 3c 2b bf ac b4 e1 bd ad 67 66 3f
       0.0071964595 -0.6688994 -0.110207886 0.90001947
000010 cf 9f eb 3c 91 45 07 3f 28 2a e2 bd 8b 6b cd 3d
       0.028762726 0.52840525 -0.11043197 0.10030278
000020 80 90 90 bc ea 5f 18 3f
       -0.017647028 0.59521353

fc2.weight f4 [15, 10]
000000 dc 03 e8 3d 38 05 71 bd 60 0c 82 3c 1b b6 94 be
       0.11328861 -0.058842868 0.015875041 -0.29045185
000010 7c d8 87 be 8b 75 9a 3e c0 4f 64 bd b8 19 4e bd
       -0.26532352 0.30167803 -0.055740118 -0.050317496
000020 33 57 89 be 00 c2 d8 3c 37 a7 71 be 14 d3 c6 3d
       -0.2682434 0.026459694 -0.23598944 0.09708229
000030 90 ba e1 3d 8c 0b 88 3e 66 b5 17 3e d3 18 fd bd
       0.11021912 0.2657131 0.14815292 -0.123582505
000040 7e fd 5f be 8f e7 7d 3b 00 c6 35 3e e7 cb c8 3e
       -0.21874043 0.0038742756 0.17751312 0.39218065
000050 c2 1c a8 bd 76 35 1a 3e 50 09 e2 bc 6c aa 99 3d
       -0.0820861 0.15059456 -0.027592331 0.075032085
000060 89 24 84 be 5e 1c cc bd db 14 90 be 63 10 40 be
       -0.25809124 -0.09966348 -0.2814091 -0.18756251
000070 d9 4b 96 3e 97 bb 9c 3e c0 77 4f 3e 06 75 6f 3e
       0.29354742 0.3061187 0.20260525 0.23384485
000080 bc e0 fb be d1 24 e8 3e c3 8e f3 3e 6c a8 7a 3e
       -0.49194896 0.4534059 0.47569856 0.2447831
000090 98 8b a8 3d 42 33 69 be 0c cc cc 3d 80 a3 f0 3d
       0.082297504 -0.2277346 0.09999856 0.11749935
0000a0 90 c6 c8 3e 4a 51 1f 3e 51 70 de bd 21 94 07 3f
       0.3921399 0.15558353 -0.108612664 0.529604
0000b0 31 73 16 bd b8 4a 54 bd 2f 45 34 be 91 ca a6 be
       -0.03673095 -0.05182907 -0.17604516 -0.3257642
0000c0 ad f9 13 be 11 4b fd 3e 5e 82 b0 3e 6f d4 32 be
       -0.14450713 0.49471334 0.34474462 -0.1746385
0000d0 36 9e 65 be b3 3e 1b 3c 2f 45 ba 3e 39 ea 8c 3e
       -0.22423634 0.009475398 0.36380908 0.27522448
0000e0 ab 35 27 be cd 97 7c bf 28 47 0d bd 1b e7 46 bd
       -0.16329066 -0.9866913 -0.034491688 -0.048560243
0000f0 90 b0 5d bd 58 2a 47 3d b6 11 eb bd 68 ff af 3d
       -0.05412346 0.048624367 -0.114779875 0.08593637
000100 38 f1 aa bd ec 41 44 be 42 c5 b6 bd 13 16 41 be
       -0.0834679 -0.19165772 -0.08924343 -0.18856077
000110 d6 c1 37 3e 8a 23 75 be 8c 18 4b 3e 5e f0 0d 3e
       0.17945036 -0.23939338 0.19833583 0.13861224
000120 d0 63 1a 3f e7 2b 8b bd 3a 7a 17 3f 70 ac 93 be
       0.6030855 -0.06795483 0.5917088 -0.28842497
000130 58 df 19 3d ec 23 86 bf 98 78 ca 3d 24 96 4e 3e
       0.037566513 -1.0479712 0.09886283 0.20174462
000140 5e 81 33 3e 56 8e 6f 3e 8d 18 46 3d 0a 29 2c be
       0.17529818 0.2339414 0.048363257 -0.1681253
000150 15 0f 8f 3e 09 b2 80 3e 60 47 b3 bc db 55 82 be
       0.27941194 0.2513583 -0.02188462 -0.25456128
000160 d4 40 33 3e d4 79 4f 3e 70 c3 e0 3e 28 56 4f bd
       0.17505199 0.20261317 0.43899107 -0.050619274
000170 fd 74 99 be 25 66 2a bd 59 46 e8 3e a2 7d c6 3d
       -0.29972067 -0.04160132 0.4536617 0.09691931
000180 d5 9c 48 be 63 16 a9 be 08 59 0f 3d 6c e8 bf 3e
       -0.19591077 -0.33024892 0.034997016 0.3748201
000190 7c 5e 86 bd 5d 46 8a 3e 36 ae 5c 3e 44 93 5d be
       -0.0656099 0.27006808 0.21550831 -0.21638209
0001a0 57 c2 87 3e cc 4e da 3d e8 43 37 be c0 ce 98 3b
       0.26515457 0.106595606 -0.17896998 0.0046633184
0001b0 00 bb 5b bd 4a 55 6e be b1 4a 05 be f4 c8 ad 3d
       -0.053645134 -0.23274723 -0.13016774 0.084855944
0001c0 30 b8 d9 be ea ad a5 3b 51 57 e7 be 6c e1 a8 3d
       -0.42523336 0.0050561326 -0.45183805 0.08246121
0001d0 7e 51 5c 3e 24 65 e1 3d aa 86 04 be 0c 82 b7 3e
       0.21515462 0.11005619 -0.12941995 0.35841405
0001e0 8a e8 96 be e2 d2 2c be ea 17 66 3e 41 60 46 be
       -0.29474288 -0.1687732 0.2247006 -0.19372655
0001f0 36 77 4f be 0d 9f 70 bd d8 20 24 3e f2 13 25 be
       -0.20260319 -0.058745433 0.16028154 -0.1612089
000200 2e 00 61 3e 4f 9b 9b bd 6d 8b a4 bd f2 67 5a be
       0.21972725 -0.07597982 -0.08034406 -0.21328714
000210 e7 9d 29 3e f2 02 d2 3e ae c7 a8 3c c9 9d 45 bc
       0.16564141 0.41017872 0.020603027 -0.012061545
000220 38 be 7a 3d b6 aa 37 be 4f 68 13 be 4c 40 c3 bd
       0.061216563 -0.17936215 -0.1439526 -0.09533748
000230 02 41 bf bd b9 5d 97 3e 38 0b bf 3c c6 59 1a 3e
       -0.09338571 0.29563692 0.02332078 0.15073308
000240 79 fe bb 3d fa 51 82 3e 6f 4c 15 be fe c1 4a 3e
       0.09179396 0.25453168 -0.14579938 0.19800565
000250 80 54 25 bb 7a cb bb 3d
       -0.0025227368 0.091696694

fc2.bias f4 [15]
000000 76 33 25 be 61 11 f3 3d 65 c1 9d be 45 86 4c 3e
       -0.16132912 0.11868549 -0.3081161 0.19973095
000010 33 dc 50 3e bf e6 b4 3b 08 f6 61 be 92 34 0c 3d
       0.203965 0.005520671 -0.2206651 0.034229822
000020 94 8e ba 3e cf 31 92 3e e0 9a 1c 3d cd 19 08 3e
       0.36436903 0.28553626 0.038233638 0.13291092
000030 cd 63 4c 3e e5 4f f7 3e 40 ba 83 3e
       0.19959946 0.48303142 0.25728035

fc3.weight f4 [15, 15]
000000 98 f4 56 3d 5d 25 07 3f 25 25 83 be 7f c3 b8 3e
       0.052479357 0.52791387 -0.25614277 0.36086652
000010 4b dc 15 be db d8 81 bf 82 d7 7e be 5b c0 2a 3f
       -0.14634816 -1.0144304 -0.24886897 0.6669976
000020 fe 45 b5 3e 8b aa 38 3d 60 a9 ad 3d 19 9d d1 be
       0.35404962 0.045084517 0.08479571 -0.40940168
000030 55 71 23 be 9a 8b 14 be 53 d5 c6 3e 2f e5 07 be
       -0.15961201 -0.14506379 0.38834628 -0.1327102
000040 2d f9 c9 3d 42 45 fd bd d9 b4 94 3e 54 cb 6c 3e
       0.0986198 -0.123667255 0.29044226 0.23124439
000050 f1 a7 8c 3f b6 ae 5d be ab 42 f1 be dd c3 df ba
       1.0988752 -0.21648678 -0.47121176 -0.0017071922
000060 09 dd c2 3e 60 85 bd bc e3 81 dd 3d 29 d7 e3 bc
       0.3805926 -0.023134887 0.108157896 -0.027812557
000070 77 ce 12 bd 80 82 6e 3d 20 4a 94 3d 4e ba 7e bc
       -0.03584143 0.058229923 0.07240701 -0.015547348
000080 e0 69 46 3e 82 1d 10 3e ee 59 9e bd 02 51 76 3e
       0.19376326 0.14073756 -0.077319965 0.2405434
000090 d0 a9 a8 3d dd d6 00 be 95 2d 5a be 3b a9 c2 3c
       0.08235514 -0.12581964 -0.2130645 0.023762336
0000a0 c4 fe dd bd a6 dc 7c bd 14 fa 9d 3d 1d 43 10 bd
       -0.10839608 -0.061733864 0.07713714 -0.035220254
0000b0 f5 50 38 3e bd 76 74 be 98 19 6b 3e 38 5c 4a 3d
       0.17999633 -0.2387342 0.22958982 0.049404353
0000c0 d0 cb 83 3c 60 e2 b0 bd a6 2e 3a be 18 0e 85 bd
       0.016088396 -0.086369276 -0.18181857 -0.06496829
0000d0 ca 11 19 3e 8f c7 62 be 48 05 53 3d 32 e9 07 be
       0.14948192 -0.22146438 0.05151871 -0.1327255
0000e0 43 86 0e be f0 fd c3 3c 28 f6 84 bc 3a fe 5b 3e
       -0.13918404 0.023924798 -0.016230658 0.21483698
0000f0 cc f0 83 be 50 69 28 3d 60 02 d6 3c 00 95 19 bb
       -0.2576965 0.04111606 0.02612418 -0.0023434758
000100 84 a3 91 bd 90 8f 6f 3d d0 8f 2f bd 08 13 5e bd
       -0.07111266 0.05848652 -0.04286176 -0.05421737
000110 a0 93 15 3d ca 2b 24 be 88 16 5b 3e 90 70 be 3c
       0.03651774 -0.16032329 0.21395314 0.023247033
000120 39 72 4a be e4 fc 18 3e 3b 9a 04 be b2 30 84 be
       -0.19770135 0.1494022 -0.12949459 -0.25818402
000130 8c 3f 89 bc 6f 36 3b be 1d b8 19 3d 55 1f 23 3e
       -0.016753934 -0.18282484 0.0375291 0.15929921
000140 75 4e 47 3f 8a 14 85 bd 7f fc d1 be 4a 7c 1c 3e
       0.7785409 -0.06498058 -0.41012952 0.15281788
000150 69 df a8 3e 6c 6b 69 be d3 88 90 3e 10 c7 30 be
       0.32982948 -0.22794884 0.2822939 -0.17263436
000160 28 f0 91 3e 9b 27 ba 3e a2 26 68 3e b0 58 2c 3e
       0.28503537 0.36358342 0.22670987 0.16830707
000170 fc a5 63 3e a3 d0 9c 3e 8d 46 1a bd a3 e8 8a 3f
       0.22231287 0.30627927 -0.03766494 1.0852245
000180 80 f2 9e 3c 03 7d ad bf 8f e6 1e 3e a0 59 59 3d
       0.019402742 -1.3553776 0.15517639 0.05306399
000190 48 45 e6 3d 4c 55 ea bd f4 52 5d 3e 90 d5 0b be
       0.11243683 -0.1144205 0.21613675 -0.13655686
0001a0 98 ac 26 be 6a c0 78 be e9 00 59 be 90 98 c1 bd
       -0.16276777 -0.2429215 -0.21191753 -0.09452927
0001b0 12 8b 2d 3e 4a ab 64 be 18 82 e1 bd 10 63 29 3e
       0.16947582 -0.22330967 -0.110111415 0.16541696
0001c0 d4 38 1e be 99 b5 6d be fc e6 6d be de 07 69 be
       -0.15451366 -0.23213805 -0.23232645 -0.22756907
0001d0 2a bb 70 3e 26 88 49 be f7 0a 10 be 78 f0 6c bd
       0.23508897 -0.19680843 -0.14066683 -0.057846516
0001e0 f0 6f 5d be ab 08 34 be 16 bf 68 3e 16 a7 90 be
       -0.21624732 -0.17581432 0.22729144 -0.28252476
0001f0 60 83 89 bd 16 b0 65 be 20 21 32 3c e9 f5 4a be
       -0.06714511 -0.22430453 0.010872155 -0.1982037
000200 3f 88 c9 3d ed 27 f1 3d 7c b9 56 3e 72 bb 4b 3e
       0.0984044 0.11775193 0.20969194 0.19895723
000210 ac 1b 98 bc 4a 22 96 3d 63 dd 64 be ad 27 1e be
       -0.018567882 0.07330759 -0.22350077 -0.15444823
000220 87 91 5c 3d 50 04 a6 bc 27 d3 1b 3e fd 39 2d be
       0.053849723 -0.020265728 0.15217267 -0.16916652
000230 a4 7e 6d be 98 2d 77 3d ba d8 31 bd 25 04 19 3e
       -0.23192841 0.060346216 -0.043419577 0.14942987
000240 1b 54 f7 bd 50 5a 32 3e 7e a8 c4 bd c0 ae 80 3d
       -0.12076589 0.17417264 -0.0960245 0.06283331
000250 a9 4f fc bd d6 eb 00 be 02 d5 47 3e 23 62 ba 3e
       -0.123198815 -0.12589964 0.1951485 0.36402997
000260 60 6a f5 bc 0f 89 87 39 91 e2 e1 3e 7a 18 78 3f
       -0.02995795 0.00025851323 0.4411817 0.9691235
000270 00 bd aa ba 61 da f0 be 3d d7 49 3e 7a 5f 53 3e
       -0.0013026297 -0.4704161 0.19711013 0.2064189
000280 f4 2e 71 be 13 e7 c1 3d 7f ca 45 3e 01 44 a7 3e
       -0.23553067 0.09467902 0.19315527 0.3266907
000290 7e fa ff 3d 4a 54 9f bd ac 01 be 3c e6 33 f2 bd
       0.124989495 -0.07779749 0.023194157 -0.11826305
0002a0 af 0b 9e 3e 22 f2 fc bd 2d 50 28 bf c0 8b 03 3e
       0.3086829 -0.12350871 -0.6574734 0.12846279
0002b0 0f 84 9f 3f 85 05 39 3e 8a d6 e9 3e e8 dd 28 3e
       1.2462176 0.18068512 0.45671493 0.164909
0002c0 ba 62 0a be 48 fc 53 be e8 a0 0e bf 7a 6a 8f 3e
       -0.13514224 -0.20701706 -0.55714273 0.28010923
0002d0 5e 2d f8 bd 24 f9 40 3e 8c 66 a4 bd 08 12 94 3e
       -0.12118028 0.1884504 -0.08027372 0.28920007
0002e0 2e 64 d8 3e be 20 8a 3f 9e 7c cd bd 00 4c da be
       0.4226393 1.0791242 -0.100335345 -0.42636108
0002f0 25 92 5f 3e 52 a8 ac 3e c8 67 49 3e f8 2e 86 3e
       0.21833093 0.33722168 0.19668496 0.2620771
000300 75 f8 90 bd 57 46 b2 3e 5c 57 bc 3e ba 6b 73 be
       -0.070786394 0.3481929 0.367854 -0.23771563
000310 9b d6 44 3e ac 64 ab 3d 8d c9 4d be cb 2b cd bd
       0.1922249 0.08368811 -0.20096417 -0.100181185
000320 bc d1 08 3e 94 c2 b8 3d 2f 90 17 3c a0 a4 4c bb
       0.13361257 0.09021488 0.009250685 -0.0031226054
000330 0d 8f 81 be 86 c1 10 3e ac 93 17 be 3c 7e a8 bd
       -0.25304452 0.14136323 -0.14802426 -0.08227202
000340 91 aa e1 bb a1 8c a2 3d 58 c7 8b 3d 02 99 c7 bd
       -0.006886788 0.07936979 0.06825131 -0.09745981
000350 f4 7d f3 bd 12 ca 67 3e 76 0a c4 3d 9d bc 70 3f
       -0.11889258 0.22635677 0.09572308 0.940378
000360 a0 3d 54 3e be 53 5a be 5b d9 28 be 6d 5d 04 3f
       0.20726633 -0.21321008 -0.16489165 0.51705056
000370 50 7b 2c 3d 78 c5 c1 3e 76 1f 6a bc 73 b2 ae 3e
       0.042109787 0.3784597 -0.014289727 0.3412052
000380 31 3f bc 3e
       0.3676696

fc3.bias f4 [15]
000000 c9 de 47 be a6 3d b1 3e b3 1d fd bd e7 51 77 be
       -0.1951858 0.34617347 -0.1235918 -0.24152337
000010 d6 f6 45 be b1 d0 5f 3e ce ae 5a be 5a 14 61 be
       -0.19332442 0.21856953 -0.21355745 -0.2198042
000020 65 23 f6 3d 4e 9c 83 bd d5 2c fc 3d ac ca 31 bf
       0.1201847 -0.06426297 0.123132385 -0.6944988
000030 2b 83 be 3e 7b af 9b 3d aa be 9c 3e
       0.37209448 0.076018296 0.30614215

fc4.weight f4 [5, 15]
000000 ee d8 bf bd d0 2c 45 bd 60 d2 8e 3c 86 92 77 3e
       -0.09367548 -0.04813844 0.017434299 0.24176988
000010 90 c0 c8 3d 2c ed 16 3e 1a 7c 48 3e 64 d0 68 3e
       0.098023534 0.14738911 0.19578591 0.22735745
000020 5a bf 0d be 2c e2 2e be 7a f7 bf bd a8 e6 cd 3d
       -0.13842526 -0.17078465 -0.09373374 0.1005376
000030 57 8b 50 be 60 1d dc 3d b0 84 27 3d b0 24 b5 3d
       -0.20365654 0.1074779 0.040898025 0.08844888
000040 14 58 74 be 9a 21 c2 bd c0 b2 b7 bb b8 5f 6c be
       -0.23861724 -0.09479065 -0.0056060255 -0.23083389
000050 82 22 8c be 5c a3 4d 3e 39 1f 02 be b9 a7 43 bd
       -0.27370077 0.20081848 -0.12707223 -0.047767375
000060 1f 04 51 3e 96 30 3e 3d 68 4d 25 3d a7 4f 5e bd
       0.20411728 0.046433054 0.040357023 -0.05427518
000070 f5 a0 0c be 59 3c 84 be 0d 17 60 bf d6 cc ea 3e
       -0.13733275 -0.25827292 -0.8753517 0.45859402
000080 40 08 46 be 20 6f f2 3d ec 93 4a be 9f d1 5a 3e
       -0.19339085 0.11837602 -0.1978299 0.21369027
000090 96 20 b6 3f 40 ce 70 be 6c ea f4 bd e8 8b 3b be
       1.4228694 -0.23516178 -0.11958775 -0.18315089
0000a0 2f b2 92 3e 12 70 54 bf 74 77 e2 3e 2f 6c 0d be
       0.28651568 -0.82983506 0.4423176 -0.138108
0000b0 36 1b 81 3e 40 71 bf bd 3e 98 0b 3e e0 d3 61 3e
       0.25216073 -0.093477726 0.13632295 0.2205348
0000c0 4c 61 38 3e c0 bb db bb 3b dd 86 be d6 ae 71 be
       0.18005866 -0.006705731 -0.2634066 -0.23601851
0000d0 5e d0 28 be 5b 10 80 be 5b cd 5d 3d 1c 4e 59 bd
       -0.16485736 -0.25012478 0.05415092 -0.053053007
0000e0 ce cb 6a bd af 83 50 3b 7c e2 35 be 49 5e 1b be
       -0.05732327 0.003181677 -0.17762178 -0.15172686
0000f0 06 95 f0 bd 18 39 f5 3d dc 8c 4c bd 18 f7 82 be
       -0.11747174 0.119737804 -0.04993902 -0.25579143
000100 de f6 8e bd bc d0 a9 3d 40 d7 4e 3e fa 92 64 be
       -0.0698068 0.08291766 0.20199299 -0.22321692
000110 82 d5 05 be a4 9f 06 bd e4 f0 c6 3d 60 13 82 3d
       -0.13069728 -0.03286709 0.09713915 0.06351352
000120 f2 6e 4e be 60 a0 67 3d 40 9d 93 bd
       -0.2015951 0.05654943 -0.072077274

fc4.bias f4 [5]
000000 38 d4 a4 bd bf 2b 3e 3e a2 b0 80 3e 2e 67 18 3d
       -0.0804829 0.18571375 0.2513476 0.037207775
000010 30 e8 f6 bd
       -0.12056005

fc_output.weight f4 [1, 5]
000000 10 7e 41 3d cd 95 7e be c8 09 a3 3e 09 10 12 be
       0.047239363 -0.24861832 0.318434 -0.1426393
000010 6e eb 45 be
       -0.1932809

exp_avg f4 [10, 2]
000000 09 5b 92 37 a8 3c 9b 37 00 00 00 00 00 00 00 00
       1.7446948e-05 1.8505685e-05 0.0 0.0
000010 c4 62 b0 b8 b1 58 5f b8 97 36 93 37 b2 83 0a 37
       -8.4107305e-05 -5.3249943e-05 1.7549186e-05 8.256104e-06
000020 73 ea aa b7 13 81 d9 36 3c 96 3a 38 8e 29 ba 37
       -2.0374753e-05 6.48213e-06 4.4485772e-05 2.2192278e-05
000030 00 00 00 00 00 00 00 00 64 cc 43 b7 44 c1 0f b8
       0.0 0.0 -1.1670494e-05 -3.427385e-05
000040 00 00 00 00 00 00 00 00 02 90 c6 b6 c0 ae 7a 36
       0.0 0.0 -5.9176245e-06 3.735462e-06

exp_avg_sq f4 [10, 2]
000000 f2 a0 b2 33 b4 e4 df 33 00 00 00 00 00 00 00 00
       8.318047e-08 1.04258476e-07 0.0 0.0
000010 ff be 37 35 81 74 40 35 0c 92 9a 33 6f 98 73 33
       6.845075e-07 7.169511e-07 7.1977496e-08 5.6716484e-08
000020 aa eb 6e 33 47 e4 e0 32 ab b3 da 34 5a b5 ae 34
       5.562803e-08 2.618084e-08 4.073639e-07 3.2541976e-07
000030 00 00 00 00 00 00 00 00 3d eb 14 32 0d 20 2b 34
       0.0 0.0 8.668221e-09 1.5937276e-07
000040 00 00 00 00 00 00 00 00 86 84 94 32 fd 05 53 32
       0.0 0.0 1.7289732e-08 1.2283178e-08

exp_avg f4 [10]
000000 66 0d 7e 38 00 00 00 00 ed df 65 b8 cb 9c 31 38
       6.0570797e-05 0.0 -5.48064e-05 4.2346113e-05
000010 3a 35 82 b7 e0 89 d3 38 00 00 00 00 9f be 65 b8
       -1.5521993e-05 0.00010086945 0.0 -5.4775384e-05
000020 00 00 00 00 1e 04 b4 b6
       0.0 -5.3648973e-06

exp_avg_sq f4 [10]
000000 21 db ed 34 00 00 00 00 3f c9 26 36 ea 32 89 34
       4.4304127e-07 0.0 2.4853068e-06 2.5555283e-07
000010 cc 21 03 34 eb 73 c6 35 00 00 00 00 fc 7f 00 35
       1.2212621e-07 1.4785886e-06 0.0 4.786996e-07
000020 00 00 00 00 fb 3a 3d 33
       0.0 4.4058634e-08

exp_avg f4 [15, 10]
000000 00 00 00 00 00 00 00 00 00 00 00 00 00 00 00 00
       0.0 0.0 0.0 0.0
000010 00 00 00 00 00 00 00 00 00 00 00 00 00 00 00 00
       0.0 0.0 0.0 0.0
000020 00 00 00 00 00 00 00 00 90 16 7f b5 00 00 00 00
       0.0 0.0 -9.5027735e-07 0.0
000030 75 be e6 b3 0e fc a5 b6 02 76 18 b5 c6 53 72 b6
       -1.07448535e-07 -4.946726e-06 -5.6796137e-07 -3.6109573e-06
000040 00 00 00 00 e0 8b 6e 34 00 00 00 00 cf 00 4e b6
       0.0 2.2216364e-07 0.0 -3.0696863e-06
000050 00 00 00 00 00 00 00 00 00 00 00 00 00 00 00 00
       0.0 0.0 0.0 0.0
000060 00 00 00 00 00 00 00 00 00 00 00 00 00 00 00 00
       0.0 0.0 0.0 0.0
000070 00 00 00 00 00 00 00 00 59 8e f5 36 00 00 00 00
       0.0 0.0 7.3181404e-06 0.0
000080 66 58 0b 34 c0 0f 83 37 ae d3 d0 36 f5 a0 34 37
       1.2977543e-07 1.5623751e-05 6.223526e-06 1.0766312e-05
000090 00 00 00 00 4b 9e a1 36 00 00 00 00 9b a4 3b 37
       0.0 4.8166016e-06 0.0 1.1184394e-05
0000a0 d3 63 40 37 00 00 00 00 b0 3f ec 35 5d 4a 12 38
       1.1467334e-05 0.0 1.7601906e-06 3.487837e-05
0000b0 fe 5a 48 37 62 91 a6 37 00 00 00 00 80 0f 7d 34
       1.1942115e-05 1.9856441e-05 0.0 2.35681e-07
0000c0 00 00 00 00 c7 79 dc 37 10 a9 a5 38 00 00 00 00
       0.0 2.628275e-05 7.8993035e-05 0.0
0000d0 87 25 41 37 59 70 6a 39 b6 74 b3 38 29 cb fd 38
       1.1512434e-05 0.00022357832 8.557124e-05 0.000121018216
0000e0 00 00 00 00 ca 9d 83 36 00 00 00 00 68 24 36 39
       0.0 3.9224733e-06 0.0 0.00017370435
0000f0 00 00 00 00 00 00 00 00 00 00 00 00 00 00 00 00
       0.0 0.0 0.0 0.0
000100 00 00 00 00 00 00 00 00 00 00 00 00 00 00 00 00
       0.0 0.0 0.0 0.0
000110 00 00 00 00 00 00 00 00 4e 8e 80 b8 00 00 00 00
       0.0 0.0 -6.130022e-05 0.0
000120 2a fa 40 b8 14 9c 2b b9 ed f8 97 b8 18 93 a3 b8
       -4.600935e-05 -0.00016365974 -7.246607e-05 -7.799844e-05
000130 00 00 00 00 ae f7 db 36 00 00 00 00 fc 0a 0d b9
       0.0 6.5555423e-06 0.0 -0.000134509
000140 4d df 71 34 00 00 00 00 93 fc e6 b4 fc 69 25 b6
       2.252611e-07 0.0 -4.302461e-07 -2.4648607e-06
000150 6d 92 e5 b4 82 ba 0a b5 00 00 00 00 e8 4e 14 36
       -4.2761113e-07 -5.168041e-07 0.0 2.2099648e-06
000160 00 00 00 00 d2 52 0f b6 22 b4 3e 37 00 00 00 00
       0.0 -2.1356868e-06 1.1366823e-05 0.0
000170 2f 16 bd 33 46 a3 f6 37 93 ef 0e 37 3e b7 b6 37
       8.8050335e-08 2.9401515e-05 8.51964e-06 2.178142e-05
000180 00 00 00 00 28 5c ea 36 00 00 00 00 eb 9f a3 37
       0.0 6.984472e-06 0.0 1.9505582e-05
000190 00 00 00 00 00 00 00 00 00 00 00 00 00 00 00 00
       0.0 0.0 0.0 0.0
0001a0 00 00 00 00 00 00 00 00 00 00 00 00 00 00 00 00
       0.0 0.0 0.0 0.0
0001b0 00 00 00 00 00 00 00 00 58 fc 8c 37 00 00 00 00
       0.0 0.0 1.6806807e-05 0.0
0001c0 75 70 e5 34 43 02 30 38 6d 75 a5 37 ef 34 a6 37
       4.2736397e-07 4.1963776e-05 1.9724213e-05 1.9813391e-05
0001d0 00 00 00 00 71 37 ef b6 00 00 00 00 0a 5a 12 38
       0.0 -7.1292093e-06 0.0 3.4892968e-05
0001e0 04 00 00 00 00 00 00 00 04 00 00 00 04 00 00 00
       6e-45 0.0 6e-45 6e-45
0001f0 04 00 00 00 04 00 00 00 00 00 00 00 00 00 00 00
       6e-45 6e-45 0.0 0.0
000200 00 00 00 00 04 00 00 00 48 4e 03 37 00 00 00 00
       0.0 6e-45 7.826435e-06 0.0
000210 21 89 2a 36 95 ae ee 37 d1 47 34 37 e6 29 4e 37
       2.5411794e-06 2.8453107e-05 1.0745557e-05 1.2288312e-05
000220 00 00 00 00 f2 38 b4 b6 00 00 00 00 eb a5 c4 37
       0.0 -5.3710473e-06 0.0 2.3442282e-05
000230 ec d5 6a b6 00 00 00 00 db e3 af b5 fd 9b 2d b7
       -3.4993236e-06 0.0 -1.3104831e-06 -1.0347922e-05
000240 da af be b6 d6 2b 2e b6 00 00 00 00 69 17 31 36
       -5.682913e-06 -2.5953536e-06 0.0 2.6388682e-06
000250 00 00 00 00 f5 09 25 b7
       0.0 -9.837085e-06

exp_avg_sq f4 [15, 10]
000000 00 00 00 00 00 00 00 00 00 00 00 00 00 00 00 00
       0.0 0.0 0.0 0.0
000010 00 00 00 00 00 00 00 00 00 00 00 00 00 00 00 00
       0.0 0.0 0.0 0.0
000020 00 00 00 00 00 00 00 00 fb 0a a9 2f 00 00 00 00
       0.0 0.0 3.0748723e-10 0.0
000030 0a 10 03 2e f4 68 c4 30 49 44 c5 2f a8 2b d8 2f
       2.9800197e-11 1.4290706e-09 3.588261e-10 3.932119e-10
000040 00 00 00 00 f1 cf 12 2d 00 00 00 00 cf 40 87 30
       0.0 8.345311e-12 0.0 9.840962e-10
000050 00 00 00 00 00 00 00 00 00 00 00 00 00 00 00 00
       0.0 0.0 0.0 0.0
000060 00 00 00 00 00 00 00 00 00 00 00 00 00 00 00 00
       0.0 0.0 0.0 0.0
000070 00 00 00 00 00 00 00 00 73 ed ea 31 00 00 00 00
       0.0 0.0 6.837291e-09 0.0
000080 8c 42 d5 30 27 91 14 33 21 3c a9 31 68 08 8c 32
       1.5516703e-09 3.459095e-08 4.925383e-09 1.6301968e-08
000090 00 00 00 00 ff 69 42 30 00 00 00 00 0a 19 99 32
       0.0 7.072742e-10 0.0 1.782293e-08
0000a0 96 d1 41 33 00 00 00 00 8a ac ea 31 75 e2 48 34
       4.512693e-08 0.0 6.8299117e-09 1.8708836e-07
0000b0 7c 08 27 33 cd 38 a0 33 00 00 00 00 1f 29 e5 30
       3.8890434e-08 7.4609126e-08 0.0 1.667363e-09
0000c0 00 00 00 00 f5 6d ea 33 55 80 16 36 00 00 00 00
       0.0 1.0916475e-07 2.242644e-06 0.0
0000d0 19 37 bb 34 68 f4 1b 37 21 37 ff 35 1d f3 7d 36
       3.4871553e-07 9.295625e-06 1.9015025e-06 3.7841448e-06
0000e0 00 00 00 00 6e 55 b8 33 00 00 00 00 2c 0a b4 36
       0.0 8.583707e-08 0.0 5.365602e-06
0000f0 00 00 00 00 00 00 00 00 00 00 00 00 00 00 00 00
       0.0 0.0 0.0 0.0
000100 00 00 00 00 00 00 00 00 00 00 00 00 00 00 00 00
       0.0 0.0 0.0 0.0
000110 00 00 00 00 00 00 00 00 a0 cd c9 35 00 00 00 00
       0.0 0.0 1.5035512e-06 0.0
000120 5e 6a 54 34 20 e8 c1 36 27 19 b6 35 39 02 11 36
       1.9782735e-07 5.778871e-06 1.3567377e-06 2.1607977e-06
000130 00 00 00 00 39 9a df 32 00 00 00 00 19 29 6c 36
       0.0 2.6030749e-08 0.0 3.5190662e-06
000140 1a 34 4d 30 00 00 00 00 61 ab c3 2e ec 83 34 31
       7.4652606e-10 0.0 8.8980164e-11 2.6268436e-09
000150 2d 19 60 30 eb 32 52 30 00 00 00 00 7f 39 2f 2e
       8.15265e-10 7.6469914e-10 0.0 3.984146e-11
000160 00 00 00 00 1b 4f 00 31 6f 16 65 32 00 00 00 00
       0.0 1.8671418e-09 1.3334655e-08 0.0
000170 ac ef 4b 31 d9 13 94 33 fd 7b 26 32 26 71 09 33
       2.9676626e-09 6.895397e-08 9.690663e-09 3.2000706e-08
000180 00 00 00 00 5b 16 c1 30 00 00 00 00 54 63 19 33
       0.0 1.4048952e-09 0.0 3.5713427e-08
000190 00 00 00 00 00 00 00 00 00 00 00 00 00 00 00 00
       0.0 0.0 0.0 0.0
0001a0 00 00 00 00 00 00 00 00 00 00 00 00 00 00 00 00
       0.0 0.0 0.0 0.0
0001b0 00 00 00 00 00 00 00 00 b0 7c 0b 33 00 00 00 00
       0.0 0.0 3.2476862e-08 0.0
0001c0 d2 d3 5a 31 b1 60 1d 34 5b 99 0a 33 35 bf 53 33
       3.184358e-09 1.465694e-07 3.2270105e-08 4.9301168e-08
0001d0 00 00 00 00 2b de a3 30 00 00 00 00 b5 b7 c4 33
       0.0 1.1922955e-09 0.0 9.160377e-08
0001e0 40 51 7a 25 00 00 00 00 96 97 23 24 f3 bc 44 2c
       2.1711572e-16 0.0 3.547339e-17 2.7958163e-12
0001f0 6a a7 b9 25 0d 62 c4 2a 00 00 00 00 00 00 00 00
       3.2205828e-16 3.488463e-13 0.0 0.0
000200 00 00 00 00 58 40 da 2b e3 d9 5d 33 00 00 00 00
       0.0 1.5507691e-12 5.165374e-08 0.0
000210 d7 68 ef 31 dd 98 52 34 4d fd 49 33 26 36 9d 33
       6.9677344e-09 1.9613385e-07 4.7029335e-08 7.320732e-08
000220 00 00 00 00 e5 63 c2 30 00 00 00 00 ee 5d 01 34
       0.0 1.414375e-09 0.0 1.2048233e-07
000230 69 a9 6c 32 00 00 00 00 e9 4b 06 31 8a c1 61 33
       1.3775527e-08 0.0 1.9542716e-09 5.2562918e-08
000240 97 5e 4f 32 8f 98 ae 32 00 00 00 00 a2 21 dc 2f
       1.2070493e-08 2.0325642e-08 0.0 4.0041664e-10
000250 00 00 00 00 f4 7e 07 33
       0.0 3.15476e-08

exp_avg f4 [15]
000000 00 00 00 00 5b c0 a1 b6 00 00 00 00 fd f6 51 37
       0.0 -4.820567e-06 0.0 1.2514877e-05
000010 d6 87 04 38 df 7a 51 39 00 00 00 00 16 59 18 b9
       3.159776e-05 0.00019977566 0.0 -0.00014529037
000020 01 12 4a b6 84 06 d1 37 00 00 00 00 35 69 19 38
       -3.0110825e-06 2.4917776e-05 0.0 3.6576024e-05
000030 04 00 00 00 2b 8c e4 37 1a 06 23 b7
       6e-45 2.7244989e-05 -9.716978e-06

exp_avg_sq f4 [15]
000000 00 00 00 00 56 7a 8b 30 00 00 00 00 13 37 c9 32
       0.0 1.0148351e-09 0.0 2.3424525e-08
000010 86 ff fd 33 9d 90 c4 36 00 00 00 00 3f 27 6e 36
       1.182771e-07 5.8580904e-06 0.0 3.5487608e-06
000020 47 7c e3 30 e1 37 4a 33 00 00 00 00 05 92 d0 33
       1.6551746e-09 4.708261e-08 0.0 9.7123156e-08
000030 b9 47 b2 2c cb fc 00 34 dd 61 0a 33
       5.067027e-12 1.2012895e-07 3.2219635e-08

exp_avg f4 [15, 15]
000000 00 00 00 00 01 f8 f1 b7 00 00 00 00 ae 20 65 b8
       0.0 -2.8844925e-05 0.0 -5.462829e-05
000010 a9 66 77 b8 42 47 8c b7 00 00 00 00 bd 34 82 b7
       -5.8985e-05 -1.6722483e-05 0.0 -1.5521766e-05
000020 e6 6d 01 b8 81 53 31 b8 00 00 00 00 a1 7a 2d b7
       -3.0858348e-05 -4.2277858e-05 0.0 -1.0340155e-05
000030 00 00 00 00 06 05 20 b8 ad 77 03 b8 00 00 00 00
       0.0 -3.815165e-05 -3.134429e-05 0.0
000040 7a a9 7d 37 00 00 00 00 dd 33 f0 37 34 ae 01 38
       1.51194345e-05 0.0 2.863438e-05 3.0918236e-05
000050 2f 11 13 37 00 00 00 00 e4 80 08 37 85 b0 87 37
       8.765884e-06 0.0 8.136241e-06 1.6175452e-05
000060 00 e7 b9 37 00 00 00 00 64 d1 b5 36 04 00 00 80
       2.2161286e-05 0.0 5.4185966e-06 -6e-45
000070 05 c0 a7 37 5f d2 89 37 00 00 00 00 04 00 00 00
       1.9997367e-05 1.6429634e-05 0.0 6e-45
000080 00 00 00 00 04 00 00 00 04 00 00 00 04 00 00 00
       0.0 6e-45 6e-45 6e-45
000090 00 00 00 00 04 00 00 00 04 00 00 00 04 00 00 00
       0.0 6e-45 6e-45 6e-45
0000a0 00 00 00 00 04 00 00 00 00 00 00 00 04 00 00 00
       0.0 6e-45 0.0 6e-45
0000b0 04 00 00 00 00 00 00 00 00 00 00 00 00 00 00 00
       6e-45 0.0 0.0 0.0
0000c0 00 00 00 00 00 00 00 00 00 00 00 00 00 00 00 00
       0.0 0.0 0.0 0.0
0000d0 00 00 00 00 00 00 00 00 00 00 00 00 00 00 00 00
       0.0 0.0 0.0 0.0
0000e0 00 00 00 00 00 00 00 00 00 00 00 00 00 00 00 00
       0.0 0.0 0.0 0.0
0000f0 00 00 00 00 00 00 00 00 00 00 00 00 00 00 00 00
       0.0 0.0 0.0 0.0
000100 00 00 00 00 00 00 00 00 00 00 00 00 00 00 00 00
       0.0 0.0 0.0 0.0
000110 00 00 00 00 00 00 00 00 00 00 00 00 00 00 00 00
       0.0 0.0 0.0 0.0
000120 00 00 00 00 00 00 00 00 00 00 00 00 00 00 00 00
       0.0 0.0 0.0 0.0
000130 59 7d ec 36 00 00 00 00 67 f1 5f 37 42 ce 71 37
       7.0479405e-06 0.0 1.3348042e-05 1.44127425e-05
000140 8e 1d 89 36 00 00 00 00 54 86 7e 36 da 03 fd 36
       4.086359e-06 0.0 3.7927139e-06 7.540436e-06
000150 24 52 2d 37 00 00 00 00 47 7b 29 36 04 00 00 80
       1.0330728e-05 0.0 2.525472e-06 -6e-45
000160 90 64 1c 37 47 7e 00 37 00 00 00 00 d7 21 1b 38
       9.321739e-06 7.658796e-06 0.0 3.6986396e-05
000170 00 00 00 00 21 aa 8e 38 94 c9 9a 38 d3 f4 b0 37
       0.0 6.8027766e-05 7.380839e-05 2.109484e-05
000180 00 00 00 00 77 0e eb 37 6c fe 20 38 24 a2 69 38
       0.0 2.8020919e-05 3.838392e-05 5.5702534e-05
000190 00 00 00 00 41 12 12 37 00 00 00 00 a3 4b 3a 38
       0.0 8.706528e-06 0.0 4.4416298e-05
0001a0 6a 3e 1a 38 00 00 00 00 00 00 00 00 00 00 00 00
       3.677459e-05 0.0 0.0 0.0
0001b0 00 00 00 00 00 00 00 00 00 00 00 00 00 00 00 00
       0.0 0.0 0.0 0.0
0001c0 00 00 00 00 00 00 00 00 00 00 00 00 00 00 00 00
       0.0 0.0 0.0 0.0
0001d0 00 00 00 00 00 00 00 00 00 00 00 00 00 00 00 00
       0.0 0.0 0.0 0.0
0001e0 00 00 00 00 04 00 00 00 00 00 00 00 04 00 00 00
       0.0 6e-45 0.0 6e-45
0001f0 04 00 00 00 00 00 00 00 00 00 00 00 04 00 00 00
       6e-45 0.0 0.0 6e-45
000200 04 00 00 00 04 00 00 00 00 00 00 00 04 00 00 00
       6e-45 6e-45 0.0 6e-45
000210 04 00 00 00 04 00 00 00 04 00 00 00 00 00 00 00
       6e-45 6e-45 6e-45 0.0
000220 04 00 00 00 00 00 00 00 04 00 00 00 04 00 00 00
       6e-45 0.0 6e-45 6e-45
000230 00 00 00 00 00 00 00 00 04 00 00 00 04 00 00 00
       0.0 0.0 6e-45 6e-45
000240 04 00 00 00 00 00 00 00 00 00 00 00 00 00 00 00
       6e-45 0.0 0.0 0.0
000250 04 00 00 00 04 00 00 00 00 00 00 00 75 83 1e 37
       6e-45 6e-45 0.0 9.448141e-06
000260 00 00 00 00 73 1a 96 37 70 13 a2 37 fa ce b7 36
       0.0 1.789371e-05 1.9320956e-05 5.4779202e-06
000270 00 00 00 00 64 9a aa 36 73 96 29 37 07 58 68 37
       0.0 5.0843682e-06 1.0108214e-05 1.3848773e-05
000280 00 00 00 00 1d 37 63 36 04 00 00 80 3f a7 51 37
       0.0 3.3857716e-06 -6e-45 1.2496311e-05
000290 36 40 2c 37 00 00 00 00 68 8e 4d b7 00 00 00 00
       1.0266949e-05 0.0 -1.2252109e-05 0.0
0002a0 72 df 7f b7 1e 9e b0 b7 3c 1d 5a b7 00 00 00 00
       -1.5251209e-05 -2.1054464e-05 -1.3000619e-05 0.0
0002b0 a7 bd b9 b7 93 36 3b b7 1a 9e 88 b7 00 00 00 00
       -2.2142032e-05 -1.1158775e-05 -1.6286085e-05 0.0
0002c0 33 db b7 35 00 00 00 00 10 9c 60 b7 2e 60 a2 b6
       1.3698358e-06 0.0 -1.3387777e-05 -4.839173e-06
0002d0 00 00 00 00 89 a9 74 37 00 00 00 00 39 ae e7 37
       0.0 1.4583006e-05 0.0 2.7618475e-05
0002e0 ba 28 fa 37 52 d9 0d 37 00 00 00 00 e1 a8 03 37
       2.9821287e-05 8.454854e-06 0.0 7.847529e-06
0002f0 1d e0 82 37 77 4e b3 37 00 00 00 00 fe 5d af 36
       1.5601569e-05 2.1375e-05 0.0 5.2263485e-06
000300 04 00 00 80 72 cc a1 37 a8 ee 84 37 00 00 00 00
       -6e-45 1.9287898e-05 1.584676e-05 0.0
000310 04 00 00 00 00 00 00 00 04 00 00 00 04 00 00 00
       6e-45 0.0 6e-45 6e-45
000320 00 00 00 00 00 00 00 00 04 00 00 00 04 00 00 00
       0.0 0.0 6e-45 6e-45
000330 04 00 00 00 00 00 00 00 04 00 00 00 04 00 00 00
       6e-45 0.0 6e-45 6e-45
000340 04 00 00 00 04 00 00 00 00 00 00 00 55 84 0b 37
       6e-45 6e-45 0.0 8.315857e-06
000350 00 00 00 00 66 1d 84 37 1a a7 8e 37 19 c8 a1 36
       0.0 1.5749316e-05 1.7005532e-05 4.8214683e-06
000360 00 00 00 00 73 28 96 36 cd 43 15 37 11 80 4c 37
       0.0 4.4750573e-06 8.896878e-06 1.2189165e-05
000370 00 00 00 00 af fa 47 36 04 00 00 80 1f 87 38 37
       0.0 2.9799228e-06 -6e-45 1.0998715e-05
000380 b8 9b 17 37
       9.0365575e-06

exp_avg_sq f4 [15, 15]
000000 00 00 00 00 10 8e ef 33 00 00 00 00 f6 d8 ea 34
       0.0 1.1155146e-07 0.0 4.3743756e-07
000010 ed 4d 06 35 00 ab 4f 33 00 00 00 00 c2 71 2a 33
       5.0032287e-07 4.8351467e-08 0.0 3.968467e-08
000020 09 dd 35 34 c1 d5 9f 34 00 00 00 00 60 a4 9c 31
       1.6937351e-07 2.9771584e-07 0.0 4.558885e-09
000030 00 00 00 00 68 26 3b 34 bd fd 1b 34 00 00 00 00
       0.0 1.7429704e-07 1.452781e-07 0.0
000040 2c 71 03 33 00 00 00 00 ea a7 01 34 77 ef 14 34
       3.0603744e-08 0.0 1.2075148e-07 1.3870691e-07
000050 dc 4b 62 32 00 00 00 00 db cd 39 32 a5 da 47 33
       1.317218e-08 0.0 1.0815223e-08 4.6532154e-08
000060 10 f6 af 33 00 00 00 00 92 5a ad 30 cb e3 10 29
       8.193831e-08 0.0 1.2613148e-09 3.2172002e-14
000070 f1 a5 4e 33 99 bc 2b 33 00 00 00 00 52 14 c6 23
       4.8114035e-08 3.998557e-08 0.0 2.1475809e-17
000080 00 00 00 00 4b b8 f8 24 4e 17 eb 24 43 bd 0f 23
       0.0 1.0786506e-16 1.01954484e-16 7.792123e-18
000090 00 00 00 00 b0 e1 f1 22 f8 21 6c 24 0a 64 b0 24
       0.0 6.5562137e-18 5.1203115e-17 7.6497306e-17
0000a0 00 00 00 00 da 44 aa 1e 00 00 00 00 0d b4 ef 23
       0.0 1.8027926e-20 0.0 2.5988686e-17
0000b0 e9 9c 17 24 00 00 00 00 00 00 00 00 00 00 00 00
       3.2875814e-17 0.0 0.0 0.0
0000c0 00 00 00 00 00 00 00 00 00 00 00 00 00 00 00 00
       0.0 0.0 0.0 0.0
0000d0 00 00 00 00 00 00 00 00 00 00 00 00 00 00 00 00
       0.0 0.0 0.0 0.0
0000e0 00 00 00 00 00 00 00 00 00 00 00 00 00 00 00 00
       0.0 0.0 0.0 0.0
0000f0 00 00 00 00 00 00 00 00 00 00 00 00 00 00 00 00
       0.0 0.0 0.0 0.0
000100 00 00 00 00 00 00 00 00 00 00 00 00 00 00 00 00
       0.0 0.0 0.0 0.0
000110 00 00 00 00 00 00 00 00 00 00 00 00 00 00 00 00
       0.0 0.0 0.0 0.0
000120 00 00 00 00 00 00 00 00 00 00 00 00 00 00 00 00
       0.0 0.0 0.0 0.0
000130 75 c0 e5 31 00 00 00 00 cd ca e1 32 27 7a 01 33
       6.686657e-09 0.0 2.628567e-08 3.014625e-08
000140 d3 b0 45 31 00 00 00 00 08 45 22 31 60 da 2e 32
       2.8767786e-09 0.0 2.3613342e-09 1.0177786e-08
000150 e0 53 99 32 00 00 00 00 c0 71 97 2f 2c 0d d3 28
       1.7849686e-08 0.0 2.7547564e-10 2.3431418e-14
000160 27 e3 33 32 9f b2 15 32 00 00 00 00 0b 27 8f 34
       1.047082e-08 8.713555e-09 0.0 2.6664233e-07
000170 00 00 00 00 b5 a9 8d 35 a8 f5 a1 35 af ef f9 33
       0.0 1.055471e-06 1.206693e-06 1.1638564e-07
000180 00 00 00 00 2b e0 c7 33 7b 65 dc 34 be a2 3f 35
       0.0 9.3074355e-08 4.105203e-07 7.1389866e-07
000190 00 00 00 00 4c 85 39 32 00 00 00 00 ff 7d e3 34
       0.0 1.07987255e-08 0.0 4.237372e-07
0001a0 54 96 be 34 00 00 00 00 00 00 00 00 00 00 00 00
       3.5499636e-07 0.0 0.0 0.0
0001b0 00 00 00 00 00 00 00 00 00 00 00 00 00 00 00 00
       0.0 0.0 0.0 0.0
0001c0 00 00 00 00 00 00 00 00 00 00 00 00 00 00 00 00
       0.0 0.0 0.0 0.0
0001d0 00 00 00 00 00 00 00 00 00 00 00 00 00 00 00 00
       0.0 0.0 0.0 0.0
0001e0 00 00 00 00 54 34 05 2b 00 00 00 00 80 71 39 2c
       0.0 4.732371e-13 0.0 2.6353086e-12
0001f0 e1 01 9d 2c 00 00 00 00 00 00 00 00 40 8a 20 26
       4.462417e-12 0.0 0.0 5.5698515e-16
000200 f3 48 af 2b 69 d9 c6 28 00 00 00 00 7d ac 3f 29
       1.2454745e-12 2.2076703e-14 0.0 4.256013e-14
000210 c8 8f d9 24 4b 90 82 2b 95 db cd 2a 00 00 00 00
       9.4352323e-17 9.277105e-13 3.656768e-13 0.0
000220 10 1e 08 2a 00 00 00 00 c9 75 9c 2a 33 71 a1 2a
       1.2089657e-13 0.0 2.7792897e-13 2.8677893e-13
000230 00 00 00 00 00 00 00 00 94 48 7e 28 9c 12 6b 2b
       0.0 0.0 1.411557e-14 8.3514597e-13
000240 ea 18 a9 18 00 00 00 00 00 00 00 00 00 00 00 00
       4.3710633e-24 0.0 0.0 0.0
000250 d4 75 96 26 34 23 86 26 00 00 00 00 82 f0 4c 32
       1.0440278e-15 9.30766e-16 0.0 1.1929048e-08
000260 00 00 00 00 dc c4 49 33 19 61 67 33 94 cd b0 31
       0.0 4.6978002e-08 5.387219e-08 5.1456457e-09
000270 00 00 00 00 9a 26 91 31 f2 ac 9b 32 1c 22 09 33
       0.0 4.224444e-09 1.8123021e-08 3.192882e-08
000280 00 00 00 00 31 49 07 30 c5 4b 7d 26 17 df a0 32
       0.0 4.9216725e-10 8.7879695e-16 1.8727901e-08
000290 01 d8 85 32 00 00 00 00 14 8e 5b 33 00 00 00 00
       1.5581465e-08 0.0 5.111913e-08 0.0
0002a0 ed 92 5a 34 e7 68 77 34 e8 c3 f9 32 00 00 00 00
       2.0356283e-07 2.3041831e-07 2.9076503e-08 0.0
0002b0 9e 27 f8 32 c5 82 a9 33 ab 19 20 34 00 00 00 00
       2.8889016e-08 7.8934626e-08 1.4910499e-07 0.0
0002c0 39 73 8f 30 00 00 00 00 7b 86 97 33 dd be 79 33
       1.0437368e-09 0.0 7.055947e-08 5.814842e-08
0002d0 00 00 00 00 41 2a f5 32 00 00 00 00 ff 0b f2 33
       0.0 2.8540969e-08 0.0 1.1271185e-07
0002e0 d7 fe 0a 34 c3 14 53 32 00 00 00 00 dd 47 2d 32
       1.2944962e-07 1.2286537e-08 0.0 1.0086265e-08
0002f0 b9 6a 3a 33 8e 46 a4 33 00 00 00 00 6e ba a1 30
       4.3403563e-08 7.649679e-08 0.0 1.1767278e-09
000300 21 3c a6 27 39 d9 40 33 d9 54 20 33 00 00 00 00
       4.6139447e-15 4.4901046e-08 3.733007e-08 0.0
000310 44 f1 e3 2b 00 00 00 00 31 d7 72 2c 94 ee e3 2c
       1.6196285e-12 0.0 3.4509724e-12 6.4782155e-12
000320 00 00 00 00 00 00 00 00 c2 f6 c8 28 97 ab 78 2c
       0.0 0.0 2.2311475e-14 3.5338171e-12
000330 2d 74 b8 27 00 00 00 00 36 b7 92 29 9f 53 ef 26
       5.1196217e-15 0.0 6.5154845e-14 1.6606622e-15
000340 18 e2 ae 2b 2e 9a c5 2a 00 00 00 00 9f 41 1f 32
       1.2426197e-12 3.5101213e-13 0.0 9.269939e-09
000350 00 00 00 00 b6 a4 1c 33 84 b7 33 33 2b 25 89 31
       0.0 3.6471384e-08 4.184359e-08 3.9914503e-09
000360 00 00 00 00 d1 30 61 31 d0 2f 72 32 c2 c0 d4 32
       0.0 3.2769558e-09 1.4097125e-08 2.4767704e-08
000370 00 00 00 00 ef 08 d2 2f 33 3a c8 28 c7 b2 79 32
       0.0 3.8205125e-10 2.22297e-14 1.4534357e-08
000380 73 ae 4f 32
       1.2088651e-08

exp_avg f4 [15]
000000 87 b5 40 b8 50 03 ca 37 04 00 00 00 00 00 00 00
       -4.5945428e-05 2.4081819e-05 6e-45 0.0
000010 00 00 00 00 02 55 3c 37 48 c0 5f 38 00 00 00 00
       0.0 1.1225466e-05 5.334642e-05 0.0
000020 04 00 00 00 04 00 00 00 a5 78 7c 37 1c eb 6f b7
       6e-45 6e-45 1.504846e-05 -1.4300251e-05
000030 7e d8 c2 37 04 00 00 00 bf 36 5e 37
       2.3227414e-05 6e-45 1.3244978e-05

exp_avg_sq f4 [15]
000000 e1 ac 7e 34 bf 88 92 33 92 10 27 24 00 00 00 00
       2.3718486e-07 6.823529e-08 3.6226388e-17 0.0
000010 00 00 00 00 39 e4 80 32 12 24 1a 35 00 00 00 00
       0.0 1.5004945e-08 5.742196e-07 0.0
000020 56 c2 03 2e 58 32 96 2c 37 21 de 32 78 7a c8 33
       2.9958556e-11 4.2688457e-12 2.5859306e-08 9.335503e-08
000030 77 96 87 33 1f c2 84 2e 6c 3d b1 32
       6.313797e-08 6.037148e-11 2.0633443e-08

exp_avg f4 [5, 15]
000000 00 00 00 00 00 00 00 00 00 00 00 00 00 00 00 00
       0.0 0.0 0.0 0.0
000010 00 00 00 00 00 00 00 00 00 00 00 00 00 00 00 00
       0.0 0.0 0.0 0.0
000020 00 00 00 00 00 00 00 00 00 00 00 00 00 00 00 00
       0.0 0.0 0.0 0.0
000030 00 00 00 00 00 00 00 00 00 00 00 00 00 00 00 00
       0.0 0.0 0.0 0.0
000040 04 00 00 00 00 00 00 00 00 00 00 00 00 00 00 00
       6e-45 0.0 0.0 0.0
000050 04 00 00 00 00 00 00 00 00 00 00 00 04 00 00 00
       6e-45 0.0 0.0 6e-45
000060 04 00 00 00 04 00 00 00 00 00 00 00 04 00 00 00
       6e-45 6e-45 0.0 6e-45
000070 04 00 00 00 04 00 00 00 df 4d f8 37 20 7d b8 38
       6e-45 6e-45 2.9600165e-05 8.79711e-05
000080 04 00 00 00 00 00 00 00 00 00 00 00 fa 7d ab 38
       6e-45 0.0 0.0 8.1773804e-05
000090 fa d2 92 b6 00 00 00 00 04 00 00 80 04 00 00 80
       -4.3757e-06 0.0 -6e-45 -6e-45
0000a0 b7 ac c7 38 3c 97 97 37 43 af 13 39 04 00 00 80
       9.52123e-05 1.8071027e-05 0.00014084303 -6e-45
0000b0 0d 65 d0 38 00 00 00 00 04 00 00 00 00 00 00 00
       9.937035e-05 0.0 6e-45 0.0
0000c0 00 00 00 00 00 00 00 00 04 00 00 00 00 00 00 00
       0.0 0.0 6e-45 0.0
0000d0 00 00 00 00 04 00 00 00 04 00 00 00 04 00 00 00
       0.0 6e-45 6e-45 6e-45
0000e0 04 00 00 00 04 00 00 00 04 00 00 00 04 00 00 00
       6e-45 6e-45 6e-45 6e-45
0000f0 00 00 00 00 00 00 00 00 00 00 00 00 00 00 00 00
       0.0 0.0 0.0 0.0
000100 00 00 00 00 00 00 00 00 00 00 00 00 00 00 00 00
       0.0 0.0 0.0 0.0
000110 00 00 00 00 00 00 00 00 00 00 00 00 00 00 00 00
       0.0 0.0 0.0 0.0
000120 00 00 00 00 00 00 00 00 00 00 00 00
       0.0 0.0 0.0

exp_avg_sq f4 [5, 15]
000000 00 00 00 00 00 00 00 00 00 00 00 00 00 00 00 00
       0.0 0.0 0.0 0.0
000010 00 00 00 00 00 00 00 00 00 00 00 00 00 00 00 00
       0.0 0.0 0.0 0.0
000020 00 00 00 00 00 00 00 00 00 00 00 00 00 00 00 00
       0.0 0.0 0.0 0.0
000030 00 00 00 00 00 00 00 00 00 00 00 00 00 00 00 00
       0.0 0.0 0.0 0.0
000040 c3 58 a9 2f 00 00 00 00 00 00 00 00 00 00 00 00
       3.080399e-10 0.0 0.0 0.0
000050 9e d1 7c 2f 00 00 00 00 00 00 00 00 3f cb 2d 2f
       2.2993737e-10 0.0 0.0 1.5806466e-10
000060 f3 d9 0f 28 37 76 9c 2d 00 00 00 00 93 d0 87 30
       7.985355e-15 1.7787645e-11 0.0 9.881823e-10
000070 47 a0 8c 2d c2 01 75 2f 31 2f 34 34 dd 3e 96 35
       1.5987335e-11 2.2283245e-10 1.6780974e-07 1.1194167e-06
000080 8b 34 77 1d 00 00 00 00 00 00 00 00 b8 46 7a 35
       3.2717342e-21 0.0 0.0 9.3235167e-07
000090 08 e9 e7 31 00 00 00 00 39 5d fb 2d e8 53 65 26
       6.7494774e-09 0.0 2.8576795e-11 7.956405e-16
0000a0 96 d0 ad 35 6a d4 96 32 88 cf 3b 36 79 1c 6f 2c
       1.2950211e-06 1.7558893e-08 2.798597e-06 3.3979748e-12
0000b0 3b 0a b5 35 00 00 00 00 01 4c bc 2a 00 00 00 00
       1.3488528e-06 0.0 3.3448247e-13 0.0
0000c0 00 00 00 00 00 00 00 00 7c da 06 2a 00 00 00 00
       0.0 0.0 1.1977393e-13 0.0
0000d0 00 00 00 00 a5 01 fa 29 17 c0 ba 25 a0 b8 fd 28
       0.0 1.11025155e-13 3.2396022e-16 2.8168711e-14
0000e0 5e f8 c8 1d 6d eb 71 2b 4b af 0f 28 54 c5 be 29
       5.3196365e-21 8.594712e-13 7.976105e-15 8.471926e-14
0000f0 00 00 00 00 00 00 00 00 00 00 00 00 00 00 00 00
       0.0 0.0 0.0 0.0
000100 00 00 00 00 00 00 00 00 00 00 00 00 00 00 00 00
       0.0 0.0 0.0 0.0
000110 00 00 00 00 00 00 00 00 00 00 00 00 00 00 00 00
       0.0 0.0 0.0 0.0
000120 00 00 00 00 00 00 00 00 00 00 00 00
       0.0 0.0 0.0

exp_avg f4 [5]
000000 00 00 00 00 04 00 00 00 12 2f 5c 38 04 00 00 00
       0.0 6e-45 5.2495925e-05 6e-45
000010 00 00 00 00
       0.0

exp_avg_sq f4 [5]
000000 00 00 00 00 ac 32 14 32 a1 ec b2 34 16 1e 0d 2d
       0.0 8.626255e-09 3.3327254e-07 8.0216025e-12
000010 00 00 00 00
       0.0

exp_avg f4 [1, 5]
000000 00 00 00 00 04 00 00 80 ec 15 e4 39 04 00 00 80
       0.0 -6e-45 0.00043503882 -6e-45
000010 00 00 00 00
       0.0

exp_avg_sq f4 [1, 5]
000000 00 00 00 00 7b 1d e2 2f fe 6c 0f 38 43 d9 9a 27
       0.0 4.1130108e-10 3.4195364e-05 4.297914e-15
000010 00 00 00 00
       0.0
